assets/my_model.tflite (tflite, 966616 bytes, 12 tensors)

sequential/conv2d/BiasAdd/ReadVariableOp/resource f4 [32]
-0.20695122 0.17971157 0.25173518 0.2799595 -0.015597263 0.34604293 0.1303613 -0.032094058
-0.06223187 -0.2737662 0.17076568 -0.046589535 0.04978116 0.42083812 -0.058232713 -0.03225243
-0.0453693 -0.012950542 0.031058619 -0.04456488 -0.017299451 0.43843755 0.27393705 0.3910011
-0.22678924 -0.03243732 0.16607916 -0.018970346 0.28264156 -0.031969834 0.6485479 0.0755288
00000000: 05eb 53be 4f06 383e 6fe3 803e da56 8f3e
00000010: aa8b 7fbc 8a2c b13e 6f7d 053e 0f75 03bd
00000020: d8e6 7ebd 152b 8cbe 33dd 2e3e abd4 3ebd
00000030: 54e7 4b3d 1878 d73e 6d85 6ebd 201b 04bd
00000040: 29d5 39bd 832e 54bc a56e fe3c aa89 36bd
00000050: 94b7 8dbc e37a e03e 7a41 8c3e 4c31 c83e
00000060: 703b 68be ffdc 04bd a810 2a3e b367 9bbc
00000070: 65b6 903e cdf2 02bd 3c07 263f d8ae 9a3d

sequential/conv2d_1/BiasAdd/ReadVariableOp/resource f4 [32]
-0.47511977 -0.06860297 -0.027988475 -0.12212022 0.07385458 -0.10139549 -0.26571903 -0.13329925
-0.043203335 -0.09045731 -0.08741061 0.4254045 0.018146724 0.21909755 0.3023742 0.22700918
0.13556378 0.35994193 -0.029230788 -0.05593052 0.2609218 -0.064834155 -0.12692173 0.08760633
0.23101847 0.2678336 -0.22498435 0.030367138 -0.05762468 -0.039807245 -0.27241236 -0.09370809
00000000: e642 f3be b77f 8cbd 1648 e5bc 2a1a fabd
00000010: 1241 973d 70a8 cfbd 530c 88be 997f 08be
00000020: fbf5 30bd af41 b9bd 5504 b3bd 9ece d93e
00000030: 70a8 943c 1c5b 603e cbd0 9a3e 1875 683e
00000040: 3bd1 0a3e 4f4a b83e 6875 efbc 6717 65bd
00000050: 8b97 853e c5c7 84bd c5f7 01be f36a b33d
00000060: 1b90 6c3e 7c21 893e 4c62 66be 81c4 f83c
00000070: db07 6cbd ec0c 23bd a279 8bbe 07ea bfbd

sequential/conv2d_2/BiasAdd/ReadVariableOp/resource f4 [64]
0.5070834 0.59734017 -0.42306006 0.9170849 0.28022647 0.34571087 0.27721274 0.31261104
-0.01426495 0.025335534 0.2804694 0.19944666 -1.1128515 0.06736251 0.17817312 0.538012
0.15689458 0.2841714 0.30161145 0.40416202 0.8630829 -0.33066085 -0.8888671 -0.15588515
0.10222786 -0.06385727 0.73254997 0.6310484 -0.28955677 0.102604546 0.67198354 0.6251793
-0.04356617 0.06885242 0.98276687 0.0085185915 -0.2544523 -0.42016387 -0.034250878 0.46351013
0.36820117 -0.3086188 0.5142884 0.66707206 0.35779032 0.7008539 -0.37372378 0.077022515
0.6892524 -0.07526489 0.007938961 0.28842244 0.4038952 0.10226399 0.7296765 0.3562064
-0.049073163 0.7370283 -0.33629635 0.9196804 -0.387386 -0.016729869 -0.0057945545 -0.77370256
00000000: 38d0 013f 49eb 183f 549b d8be 13c6 6a3f
00000010: d879 8f3e 0401 b13e d4ee 8d3e 8e0e a03e
00000020: 89b7 69bc 778c cf3c af99 8f3e bf3b 4c3e
00000030: eb71 8ebf 5bf5 893d 0473 363e 28bb 093f
00000040: f9a8 203e ea7e 913e d16c 9a3e 53ee ce3e
00000050: 00f3 5c3f 614c a9be cb8c 63bf 5ba0 1fbe
00000060: d75c d13d 9ac7 82bd 6588 3b3f 638c 213f
00000070: c940 94be 5522 d23d 1d07 2c3f c00b 203f
00000080: 7172 32bd 7f02 8d3d 9c96 7b3f 9091 0b3c
00000090: 9247 82be b81f d7be a64a 0cbd 3351 ed3e
000000a0: dd84 bc3e 4903 9ebe 68a8 033f 3cc5 2a3f
000000b0: 4b30 b73e 296b 333f b958 bfbe fbbd 9d3d
000000c0: d872 303f 7b24 9abd 6a12 023c 1bac 933e
000000d0: 5acb ce3e c86f d13d 14cc 3a3f af60 b63e
000000e0: f100 49bd e3ad 3c3f 092f acbe 2d70 6b3f
000000f0: 7557 c6be 140d 89bc 3fe0 bdbb 5f11 46bf

sequential/conv2d_3/BiasAdd/ReadVariableOp/resource f4 [64]
0.22762343 -0.072435096 -0.1996842 -0.1451667 0.03826675 0.12581672 0.33657262 0.18652804
0.23735996 -0.050349765 0.25209334 -0.059579425 0.2622116 0.4006926 -0.0070225988 0.047072276
0.0057779653 -0.044332698 0.16266957 -0.0028540553 0.33249193 0.21941236 0.22168833 -0.009499348
-0.123302735 0.32304534 -0.029957848 0.25356254 -0.07277882 0.2319612 -0.100775264 -0.08787296
-0.053249728 -0.035539582 0.14072274 -0.011327817 0.29757375 -0.18946218 0.21101254 0.21066912
-0.13690144 -0.053388815 -0.0016393852 0.016954018 0.46073648 0.40125027 -0.041179374 0.2175575
0.4495845 -0.0692702 0.23543379 0.28151417 0.35229835 0.31028274 -0.20127913 0.21622603
0.24832624 -0.06616752 0.09586727 0.23195843 0.592984 0.047303326 0.22691754 0.4336242
00000000: 1e16 693e da58 94bd 047a 4cbe 94a6 14be
00000010: 98bd 1c3d 19d6 003e 3f53 ac3e 3501 3f3e
00000020: 7d0e 733e 8e3b 4ebd 6112 813e 8e09 74bd
00000030: 9940 863e 9527 cd3e d41d e6bb dcce 403d
00000040: 1655 bd3b 3496 35bd da92 263e 1a0b 3bbb
00000050: 623c aa3e a2ad 603e 4402 633e 27a3 1bbc
00000060: 2586 fcbd 3366 a53e 296a f5bc f3d2 813e
00000070: 100d 95bd 3d87 6d3e 4363 cebd bdf6 b3bd
00000080: 631c 5abd f491 11bd 9f19 103e 4f98 39bc
00000090: 965b 983e 6002 42be ac13 583e a5b9 573e
000000a0: e42f 0cbe 3bae 5abd a4e0 d6ba 27e3 8a3c
000000b0: a7e5 eb3e ad70 cd3e b4ab 28bd 65c7 5e3e
000000c0: f12f e63e 89dd 8dbd 8e15 713e a022 903e
000000d0: 7360 b43e 61dd 9e3e 1e1c 4ebe 5b6a 5d3e
000000e0: 3c49 7e3e d682 87bd 0f56 c43d 8386 6d3e
000000f0: cdcd 173f 22c1 413d 125d 683e fe03 de3e

sequential/dense/BiasAdd/ReadVariableOp/resource f4 [256]
0.04401356 0.30186042 -0.11569615 -0.021887902 0.1275406 -0.0562934 -0.033118095 0.014184761
0.08018462 0.10237077 0.16427235 0.042260956 0.07958502 -0.06971156 0.058388956 0.070958644
0.056212485 0.33525735 0.14139956 0.17464404 0.046347037 0.01964965 0.13816263 0.13434604
0.14488195 0.039488852 0.1804878 -0.0614595 -0.031775616 -0.023259621 0.19752328 -0.07735041
0.028683098 0.048307933 0.18525648 0.1878758 -0.07644938 -0.027821861 0.08786394 0.11064225
-0.005018633 0.17140882 0.107830346 0.15604118 0.05174834 0.19916102 0.087236814 0.26364833
0.11179694 0.088227786 0.122671396 0.07442846 -0.07157429 0.1940447 0.021519314 0.085509494
0.0487542 0.110258795 -0.06616623 0.012112643 0.1820015 -0.04597521 -0.028205022 0.0151132615
0.107804 0.16300188 0.038307022 -0.08311263 0.18600906 -0.047368996 -0.12068708 0.11776759
0.20891698 0.06270411 -0.08170128 -0.09120793 0.07137836 0.09729909 0.17564219 0.06872026
-0.016625937 0.012678768 0.14719789 0.059609346 -0.03055116 0.031031039 0.20420355 0.11302479
-0.05510546 0.006375866 0.1495661 0.015341021 0.06930687 -0.03572859 -0.0023418998 0.17063063
0.05128818 0.17510118 -0.051755782 0.10856456 0.19233121 0.034616727 0.0040093157 0.0011310984
0.18116096 -0.010027904 0.017599285 0.04419779 -0.055718057 0.0024270061 0.22182348 0.13220195
0.0012352222 0.12236503 0.042711705 0.022777524 0.04229612 -0.013982303 -0.08056088 -0.008346841
0.014857932 0.13815269 0.14551106 0.08775831 -0.041170284 0.041446082 0.18765852 -0.110966474
0.11045192 0.079705976 0.08394938 0.044321965 0.13561855 0.00040937765 -0.008844315 0.026101187
0.010641617 0.019363148 -0.13538705 0.14247331 -0.095300764 0.04606299 -0.05011227 -0.0067568235
-0.08816252 0.02816543 0.16972049 0.20402023 -0.035764903 0.06671156 0.11249633 0.22340114
0.12945586 0.2640857 0.15040877 0.11736077 0.14603657 0.09063015 -0.062329896 0.18802428
0.11489724 0.23605637 0.016612154 -0.0047505177 -0.040486127 0.057976615 -0.111858085 0.15172158
0.09542639 0.1646566 0.11265379 0.14581774 0.14830358 0.208047 0.08482306 -0.051448308
0.14087068 0.012545426 0.085054845 0.24464084 -0.03815849 0.24877732 -0.052696556 -0.02723321
0.14851199 0.18948059 0.10963516 0.115859985 0.051281843 0.08988697 0.030881384 0.027842304
0.08847632 0.18155533 0.2081809 0.16751865 0.07978457 0.15998839 0.027279794 -0.068077885
0.22977975 -0.08816077 0.0913076 0.07085179 0.12844242 0.015260896 0.10487479 0.04553427
0.09922444 -0.03839396 -0.06290006 -0.026782596 0.05751097 0.03352039 -0.00061966124 -0.10097239
0.19325006 0.19386627 -0.11316456 -0.09326502 0.21273316 0.14452732 0.13174415 0.062148172
0.08910007 -0.08259994 0.02422419 0.31269658 -0.04297475 -0.07977184 -0.08620523 0.08459148
0.10776716 0.07779373 0.20106554 0.11355503 0.22657688 0.15800375 -0.0036890607 -0.008704024
0.13579328 -0.1493797 0.2779993 0.042077515 -0.08815627 0.007633839 -0.013309298 -0.0072967433
0.15900119 0.16684282 -0.02172763 0.10953421 -0.072326556 -0.00957624 -0.06453774 0.06552588
00000000: 9047 343d 738d 9a3e 1af2 ecbd 424e b3bc
00000010: 019a 023e e893 66bd d7a6 07bd 3367 683c
00000020: d637 a43d c4a7 d13d 0337 283e d319 2d3d
00000030: 79fd a23d efc4 8ebd 4229 6f3d c452 913d
00000040: 103f 663d daa6 ab3e 0ccb 103e e3d5 323e
00000050: 64d6 3d3d 4ef8 a03c 817a 0d3e 0292 093e
00000060: ef5b 143e 10bf 213d cbd1 383e f5bc 7bbd
00000070: 2627 02bd f68a bebc 8b43 4a3e e469 9ebd
00000080: d1f8 ea3c 8ade 453d e0b3 3d3e 8462 403e
00000090: 7e91 9cbd acea e3bc 02f2 b33d 6798 e23d
000000a0: 5873 a4bb cb85 2f3e 28d6 dc3d 42c9 1f3e
000000b0: 11f6 533d def0 4b3e 37a9 b23d eafc 863e
000000c0: cbf5 e43d c5b0 b43d 243b fb3d f36d 983d
000000d0: 8b95 92bd a7b3 463e 4649 b03c 9a1f af3d
000000e0: 7cb2 473d 5dcf e13d 2982 87bd 1b74 463c
000000f0: 9a5e 3a3e 8050 3cbd 380e e7bc 9d9d 773c
00000100: 58c8 dc3d f7e9 263e d3e7 1c3d f436 aabd
00000110: 2979 3e3e fe05 42bd ca2a f7bd 2230 f13d
00000120: 55ee 553e 036b 803d 0053 a7bd 39cb babd
00000130: d12e 923d bf44 c73d 8cdb 333e 35bd 8c3d
00000140: 1e33 88bc 9bba 4f3c 0bbb 163e ee28 743d
00000150: 6d46 fabc ce34 fe3c bc1a 513e 8b79 e73d
00000160: 43b6 61bd a4ec d03b db27 193e e858 7b3c
00000170: c3f0 8d3d 2458 12bd 8f7a 19bb ccb9 2e3e
00000180: 8e13 523d b94d 333e dffd 53bd 1957 de3d
00000190: 79f2 443e 45ca 0d3d 9460 833b 5d41 943a
000001a0: 4282 393e 144c 24bc 602c 903c be08 353d
000001b0: 9e38 64bd 680e 1f3b b225 633e f35f 073e
000001c0: 2ee7 a13a 849a fa3d 78f2 2e3d ee97 ba3c
000001d0: b23e 2d3d 0816 65bc 1afd a4bd 30c1 08bc
000001e0: af6e 733c e677 0d3e da00 153e a1ba b33d
000001f0: 2ca2 28bd 5ec3 293d 8e29 403e 6442 e3bd
00000200: 9e34 e23d e33c a33d a7ed ab3d f38a 353d
00000210: 97df 0a3e bda1 d639 bfe7 10bc 28d2 d53c
00000220: 2d5a 2e3c 779f 9e3c e7a2 0abe 86e4 113e
00000230: 0c2d c3bd 8cac 3c3d 8642 4dbd 5868 ddbb
00000240: 8d8e b4bd 30bb e63c 35cb 2d3e aeea 503e
00000250: 387e 12bd 12a0 883d 7a64 e63d 45c3 643e
00000260: 1490 043e 3e36 873e c204 1a3e d85a f03d
00000270: 9c8a 153e 4d9c b93d a24d 7fbd 7089 403e
00000280: 3f4f eb3d c3b8 713e 3616 883c 3baa 9bbb
00000290: c8d4 25bd e378 6d3d da15 e5bd e75c 1b3e
000002a0: e96e c33d bd9b 283e 08b7 e63d 3f51 153e
000002b0: e5dc 173e 460a 553e b6b7 ad3d 76bb 52bd
000002c0: 6740 103e 558b 4d3c 3c31 ae3d 2183 7a3e
000002d0: 144c 1cbd 7bbf 7e3e 58d8 57bd 2e18 dfbc
000002e0: 8713 183e 3307 423e 6688 e03d 0048 ed3d
000002f0: e90c 523d a916 b83d f5fa fc3c 8b15 e43c
00000300: 1333 b53d a4e9 393e 602d 553e 028a 2b3e
00000310: 1866 a33d ffd3 233e e079 df3c 6b6c 8bbd
00000320: 624b 6b3e a28d b4bd 7bff ba3d be1a 913d
00000330: 6986 033e d608 7a3c 98c8 d63d 2582 3a3d
00000340: 2f36 cb3d fc42 1dbd bfd1 80bd 2d67 dbbc
00000350: 9f90 6b3d ad4c 093d c370 22ba 9dca cebd
00000360: 58e3 453e e184 463e d2c2 e7bd bb01 bfbd
00000370: b9d6 593e f8fe 133e f0e7 063e 158f 7e3d
00000380: 197a b63d 282a a9bd cf71 c63c c419 a03e
00000390: 4b06 30bd 6b5f a3bd 5e8c b0bd 4c3e ad3d
000003a0: 07b5 dc3d 5252 9f3d 20e4 4d3e 8a8f e83d
000003b0: c503 683e bccb 213e 2bc4 71bb 539b 0ebc
000003c0: 650d 0b3e fef6 18be ed55 8e3e 7959 2c3d
000003d0: 468b b4bd 4825 fa3b 3e0f 5abc 8519 efbb
000003e0: 35d1 223e d8d8 2a3e 25fe b1bc 7953 e03d
000003f0: f21f 94bd a9e5 1cbc 5d2c 84bd 6f32 863d

sequential/dense_1/BiasAdd/ReadVariableOp/resource f4 [43]
-0.5073804 -0.056988914 -0.000624805 0.24009542 0.12138262 0.27125672 0.27955344 0.07213333
0.35435495 -0.16286662 0.19726665 -0.11925606 0.017112741 -0.16258499 -0.17591801 -0.13529298
-0.24644741 -0.16076855 0.07313603 -0.19165976 0.16210173 -0.17359574 -0.2677129 -0.14274877
-0.08045415 0.15531929 0.05287451 -0.15813556 -0.07143804 -0.05572525 0.37736803 0.1263472
-0.025643762 0.0015746602 -0.15757863 -0.18925728 -0.1668523 -0.2051614 -0.18285058 -0.030924698
0.02555751 -0.1849585 -0.064719655
00000000: afe3 01bf 356d 69bd f4c9 23ba 93db 753e
00000010: 7397 f83d 29e2 8a3e a121 8f3e a4ba 933d
00000020: 036e b53e 82c6 26be 4500 4a3e 853c f4bd
00000030: 0530 8c3c ae7c 26be da23 34be 3e8a 0abe
00000040: b65c 7cbe 83a0 24be 58c8 953d 7542 44be
00000050: fffd 253e 15c3 31be aa11 89be bc2c 12be
00000060: 25c5 a4bd 050c 1f3e f192 583d 4aee 21be
00000070: 1b4e 92bd 2940 64bd 6236 c13e 2961 013e
00000080: de12 d2bc d464 ce3a 4b5c 21be a9cc 41be
00000090: 54db 2abe d415 52be 2f3d 3bbe cb55 fdbc
000000a0: fc5d d13c c365 3dbe bd8b 84bd

sequential/dense/MatMul f4 [256, 576]
-0.022684328 -0.1492393 0.07501525 -0.12571277 -0.045987077 -0.026523735 -0.020885823 -0.14481336
0.00349608 -0.027489902 -0.15694375 -0.13403742 -0.12775245 -0.14186913 -0.057085432 -0.027182613
-0.018474746 -0.033675894 0.006344761 0.031130359 0.025892848 0.11992733 -0.22154023 -0.0029325625
-0.0676296 0.13197663 -0.10292758 -0.083970174 -0.04679697 -0.021288795 -0.053971708 0.049684767
0.059876867 0.077523336 -0.0050656414 0.03533745 -0.18525074 0.08719241 -0.026318498 0.04980069
-0.1745566 0.004435368 0.008761457 -0.12731424 -0.09434274 -0.0019007887 0.01379024 0.057427913
0.19331607 0.06024645 0.03508099 0.06445857 0.112287305 -0.022198189 0.049927477 -0.013642452
-0.035274807 -0.18633294 -0.0645047 0.082898095 0.05103124 -0.022460284 -0.082604885 0.030305505
0.09781656 -0.028584534 -0.035580575 -0.07511146 -0.092110895 -0.06479014 0.07465691 0.019832455
0.081445515 -0.043222066 -0.08012913 -0.0583207 -0.046229336 0.1076021 -0.08653332 -0.038959082
-0.16218984 0.029969817 0.02703514 -0.012630058 0.07207292 0.098944634 -0.014589098 -0.0125065325
0.02043364 -0.013198662 -0.062033165 0.17336111 -0.10454734 0.12612891 -0.069212064 -0.050742503
0.056068562 -0.039524965 0.07705074 0.016808668 -0.04031199 -0.07805162 -0.17482017 -0.06267731
0.12715307 -0.047308847 0.08743418 -0.10140142 -0.068419576 -0.0365334 -0.09235512 0.054421343
0.17811714 0.04226795 0.14395158 0.024325507 -0.08130269 0.025931306 -0.20558457 0.029915286
-0.20229183 -0.037289456 0.09503123 0.18658058 0.03483892 -0.05587145 0.069561936 -0.12100308
0.08170717 -0.08756235 -0.043297652 -0.02118163 0.06028587 0.0042365887 -0.017519662 0.16899726
0.01433152 -0.0119813755 -0.049934324 -3.820347e-05 -0.18521574 -0.1045107 -0.053367026 -0.10912368
-0.03435787 -0.05973775 0.12351399 -0.0053739743 -0.026777763 0.038111046 -0.040243465 -0.056976452
-0.11947695 -0.13727234 0.09825724 0.06455522 -0.0056449436 0.15148212 -0.12739843 -0.046110462
0.0405212 0.01150172 0.060859963 -0.06600314 -0.07114141 0.00088717096 -0.18302293 0.016322877
0.028043913 -0.022759711 -0.019335955 -0.0741471 -0.1850447 0.007906857 0.0029337697 0.0478446
0.17486724 0.008069945 0.1125843 0.0034630003 -0.053292647 -0.017534766 -0.10070757 0.049302656
-0.0021930644 -0.026168829 0.028213883 0.043297205 0.0140186325 0.0042694705 -0.07035006 -0.08847343
-0.11291251 -0.012434041 0.04913341 -0.07570327 -0.110089265 -0.18267322 0.07893037 -0.1369284
0.111430265 -0.028557435 0.008195018 -0.15470539 0.09098359 -0.10523394 -0.121403344 -0.006000833
-0.08716495 0.021507606 -0.033877995 -0.1383369 -0.12227049 0.088037945 -0.09907674 -0.039698523
-0.03707575 0.011070654 0.025212904 0.09148535 -0.10020044 -0.07334842 0.010948135 -0.078216925
0.013923831 -0.036630172 -0.1376225 -0.059847936 0.024996761 -0.047135267 -0.14222983 -0.016721701
0.101815894 -0.032501273 -0.01571598 0.08298378 -0.06859179 0.0512406 -0.016127845 -0.13975509
0.06215135 -0.07981482 -0.038161363 0.033773687 -0.022604866 -0.026561482 -0.08736263 -0.034602404
-0.13414988 -0.07969163 -0.005835296 -0.16693178 0.095632166 0.076049075 0.014912326 0.0056581013
00000000: 7cd4 b9bc 30d2 18be 98a1 993d d9ba 00be
00000010: f25c 3cbd 4e48 d9bc bf18 abbc f449 14be
00000020: 7d1e 653b 8132 e1bc ddb5 20be 1b41 09be
00000030: 8ad1 02be 2446 11be 6ad2 69bd 12ae debc
00000040: 5a58 97bc bcef 09bd b6e7 cf3b 1805 ff3c
00000050: 3d1d d43c 769c f53d 71db 62be 3c30 40bb
00000060: 6381 8abd e224 073e b2cb d2bd 8ef8 abbd
00000070: 2eae 3fbd d765 aebc 7011 5dbd 4182 4b3d
00000080: 7241 753d 8ec4 9e3d aefd a5bb 01be 103d
00000090: 5fb2 3dbe ef91 b23d e499 d7bc cffb 4b3d
000000a0: f7be 32be 9056 913b 378c 0f3c aa5e 02be
000000b0: c436 c1bd e323 f9ba 75f0 613c 8839 6b3d
000000c0: a6f4 453e fbc4 763d 16b1 0f3d db02 843d
000000d0: e3f6 e53d fad8 b5bc c180 4c3d 9784 5fbc
000000e0: 517c 10bd 10ce 3ebe 0a1b 84bd 7ac6 a93d
000000f0: 2206 513d a1fe b7bc c02c a9bd 4043 f83c
00000100: 0c54 c83d 1d2a eabc f0bc 11bd 0ad4 99bd
00000110: a3a4 bcbd b1b0 84bd b9e5 983d ac77 a23c
00000120: e8cc a63d 9f09 31bd be1a a4bd b0e1 6ebd
00000130: f95a 3dbd 7d5e dc3d 6238 b1bd 8f93 1fbd
00000140: 1815 26be 4383 f53c cc78 dd3c 4eee 4ebc
00000150: f89a 933d 7ca3 ca3d 1d07 6fbc 33e8 4cbc
00000160: 7364 a73c 333f 58bc 7d16 7ebd 9385 313e
00000170: ea1c d6bd f027 013e 0ebf 8dbd 5fd7 4fbd
00000180: 26a8 653d eee4 21bd c7cc 9d3d 55b2 893c
00000190: 2f1e 25bd 87d9 9fbd 0f04 33be f65c 80bd
000001a0: 6a34 023e ecc6 41bd b110 b33d 8cab cfbd
000001b0: 901f 8cbd 0ca4 15bd ae24 bdbd eae8 5e3d
000001c0: 5764 363e 2821 2d3d 0b68 133e 4946 c73c
000001d0: 0682 a6bd e46d d43c c384 52be e710 f53c
000001e0: 9725 4fbe d4bc 18bd bc9f c23d fb0e 3f3e
000001f0: 41b3 0e3d 76d9 64bd 7d76 8e3d 76d0 f7bd
00000200: 1756 a73d e453 b3bd e158 31bd 1985 adbc
00000210: 51ee 763d 15d3 8a3b 6585 8fbc 9e0d 2d3e
00000220: c0ce 6a3c 884d 44bc ef87 4cbd aa3c 20b8
00000230: 32a9 3dbe b509 d6bd 6297 5abd 3c7c dfbd
00000240: d7ba 0cbd 92af 74bd e7f4 fc3d 2a18 b0bb
00000250: 0a5d dbbc 541a 1c3d 55d6 24bd 2460 69bd
00000260: 55b0 f4bd 1f91 0cbe 183b c93d 8735 843d
00000270: 38f9 b8bb 211e 1b3e bc74 02be 53de 3cbd
00000280: 8ff9 253d b671 3c3c 4c48 793d a72c 87bd
00000290: 96b2 91bd 0991 683a 5d6a 3bbe 8eb7 853c
000002a0: 59bc e53c 9372 babc 7066 9ebc 6fda 97bd
000002b0: 5c7c 3dbe c38b 013c 7d44 403b b3f8 433d
000002c0: 6610 333e cd37 043c 9992 e63d 81f3 623b
000002d0: 6449 5abd 12a5 8fbc c53f cebd 95f1 493d
000002e0: 84b9 0fbb 0360 d6bc cd20 e73c 6958 313d
000002f0: 68ae 653c eae6 8b3b b113 90bd 8f31 b5bd
00000300: ad3e e7bd 26b8 4bbc 1d40 493d 510a 9bbd
00000310: 7b76 e1bd b00e 3bbe 3fa6 a13d f536 0cbe
00000320: 8d35 e43d 48f1 e9bc 6644 063c 176b 1ebe
00000330: 9b55 ba3d e484 d7bd 51a2 f8bd a3a2 c4bb
00000340: 8a83 b2bd b830 b03c a7c3 0abd 30a8 0dbe
00000350: f368 fabd 3d4d b43d bfe8 cabd eb9a 22bd
00000360: bedc 17bd b061 353c 4b8b ce3c ac5c bb3d
00000370: e335 cdbd b237 96bd ce5f 333c 3230 a0bd
00000380: c820 643c 8509 16bd eaec 0cbe 1c23 75bd
00000390: 02c6 cc3c e910 41bd b2a4 11be f3fb 88bc
000003a0: da84 d03d 0e20 05bd cdbe 80bc 66f3 a93d
000003b0: da79 8cbd aae1 513d 8b1e 84bc f51b 0fbe
000003c0: 6a92 7e3d f475 a3bd 174f 1cbd 4756 0a3d
000003d0: d72d b9bc 7797 d9bc 2eeb b2bd 40bb 0dbd
000003e0: 965e 09be 5e35 a3bd 0336 bfbb 2af0 2abe
000003f0: ccda c33d 9ebf 9b3d d452 743c 9867 b93b

sequential/dense_1/MatMul f4 [43, 256]
-0.046450563 -0.17028877 0.1195336 0.012035925 -0.0061998228 0.03519765 -0.11672984 -0.18236996
0.059655383 -0.15766321 -0.5358218 -0.1263032 -0.054525595 -0.09976734 0.10086533 -0.17102818
-0.027953312 0.020507136 -0.18082269 -0.24311605 -0.18444236 0.06585984 0.13969952 -0.03491622
0.0090516 0.01427655 -0.3595618 0.05629318 -0.15918544 0.06926314 0.13246772 -0.07371424
-0.06564174 0.046513002 0.007496055 0.1761778 0.11504587 0.027533494 0.059363697 -0.15888566
0.07302058 -0.08805687 -0.19974469 -0.123689584 -0.08616614 -0.1108953 0.071854584 -0.13381991
-0.337867 0.0067358115 0.05563642 0.03476688 0.14444977 -0.1421702 0.095066614 0.08850836
-0.023826549 0.08232622 -0.044829417 -0.03796176 0.026800947 0.0195277 -0.16929018 0.096581936
-0.10770511 -0.16720311 0.07647846 0.044124506 -0.21834236 -0.086412 -0.023007806 -0.29168776
-0.1739791 0.077332295 -0.0683739 0.071644895 0.09032077 -0.08137924 -0.15456983 -0.112894714
0.08359703 0.07048138 -0.23752531 -0.0035240185 -0.13149995 -0.17192203 -0.47049198 -0.42348835
-0.027556425 -0.37768623 -0.022724513 -0.16390719 0.084472656 0.03582227 -0.29169324 0.035369985
0.044472326 0.043041397 -0.2944386 -0.31000268 -0.027585568 -0.112900846 -0.014940707 -0.048296485
-0.09483331 -0.24250075 -0.07441754 0.017340425 -0.15850243 -0.13521335 -0.03553771 -0.028149167
-0.10955295 -0.0008303547 -0.04761546 0.08439284 -0.22082406 0.057306945 -0.2722416 0.052650187
-0.12351929 -0.2505671 -0.05469596 0.13892868 0.059831757 0.04989459 0.1819273 -0.10995488
-0.017278763 0.11275421 0.111391686 -0.14776681 -0.3007075 -0.19736823 -0.1282754 -0.40228736
-0.0660576 -0.04119973 -0.030621847 -0.014150361 -0.07051417 0.12640905 0.040518753 0.09161363
-0.17261896 -0.052333884 -0.010614595 -0.09912854 -0.123700455 -0.08373064 -0.102062844 -0.101015426
0.18182755 -0.013035939 0.0212227 -0.007276235 0.093240015 0.05255447 0.13328767 -0.13686515
-0.31795502 0.08626077 -0.10343141 -0.22174416 0.014458065 -0.06633466 -0.0682834 -0.13735789
0.060517736 0.07225191 -0.16754662 -0.10456241 0.10423072 0.05889851 -0.14926967 0.066187546
0.13409786 -0.12488032 -0.07121766 -0.21656303 -0.021656793 -0.12919104 0.04877377 0.012291142
-0.12821242 -0.12565987 0.060299087 -0.09751381 -0.12285756 -0.057977755 0.13847497 0.04949146
-0.08950791 -0.07633562 -0.14565599 0.0011274465 -0.30908418 0.17858447 0.02365689 -0.26155663
0.020178476 -0.15730162 -0.19497584 0.10867529 0.011580965 -0.027431842 -0.30853704 -0.11026358
0.014013854 -0.063508496 0.08656504 -0.127875 0.0017492302 -0.17900701 0.06311904 0.07889816
-0.14188702 -0.16833484 -0.16684903 0.08046838 -0.05590946 0.015425144 0.12567624 -0.18318133
-0.23710746 -0.023093686 -0.03863304 -0.12741879 -0.014024217 0.032396406 -0.0602669 -0.28986695
-0.18105718 -0.05699532 -0.040922377 -0.08320101 -0.26081115 -0.17263983 -0.12221625 -0.20445256
-0.15405987 0.023702363 -0.080905385 -0.13251652 0.004286512 0.09401711 0.057857495 -0.33916467
-0.18306531 0.09283484 0.030658742 -0.36525384 0.06595449 0.1376227 0.0830426 -0.05216384
00000000: f242 3ebd 2e60 2ebe 08ce f43d 5432 453c
00000010: e227 cbbb 692b 103d 0e10 efbd 31bf 3abe
00000020: 3459 743d 7772 21be 9e2b 09bf a055 01be
00000030: 3b56 5fbd d252 ccbd 7b92 ce3d 0322 2fbe
00000040: 58fe e4bc 95fe a73c 9529 39be 6af3 78be
00000050: 75de 3cbe 86e1 863d 640d 0f3e 4f04 0fbd
00000060: 294d 143c 31e8 693c 7c18 b8be ad93 663d
00000070: 8201 23be d5d9 8d3d 9ea5 073e 7ef7 96bd
00000080: 2d6f 86bd 6b84 3e3d 78a1 f53b f467 343e
00000090: 2b9d eb3d ec8d e13c 5927 733d ecb2 22be
000000a0: d08b 953d 2957 b4bd df89 4cbe f750 fdbd
000000b0: e077 b0bd 131d e3bd 7f28 933d 1608 09be
000000c0: e7fc acbe 15b8 dc3b 04e3 633d b767 0e3d
000000d0: a4ea 133e 1195 11be 49b2 c23d df43 b53d
000000e0: e52f c3bc a69a a83d 0d9f 37bd ca7d 1bbd
000000f0: a98d db3c 8ef8 9f3c 685a 2dbe c0cc c53d
00000100: 7f94 dcbd 4b37 2bbe bda0 9c3d e6bb 343d
00000110: 2495 5fbe c6f8 b0bd de7a bcbc 1958 95be
00000120: 9427 32be 6560 9e3d 9e07 8cbd 8fba 923d
00000130: 19fa b83d 29aa a6bd 8e47 1ebe 5835 e7bd
00000140: eb34 ab3d 8b58 903d d639 73be 38f3 66bb
00000150: eca7 06be 540c 30be 53e4 f0be 77d3 d8be
00000160: 03be e1bc 1760 c1be c228 babc 49d7 27be
00000170: 0000 ad3d 5fba 123d d158 95be 1ee0 103d
00000180: 9d28 363d 2d4c 303d a8c0 96be acb8 9ebe
00000190: 21fb e1bc 8f38 e7bd dec9 74bc 89d2 45bd
000001a0: f737 c2bd 1e52 78be 3968 98bd 820d 8e3c
000001b0: 764e 22be 5e75 0abe fd8f 11bd 1599 e6bc
000001c0: 4c5d e0bd 29ac 59ba 6e08 43bd 27d6 ac3d
000001d0: b41f 62be b0ba 6a3d 4063 8bbe b9a7 573d
000001e0: aef7 fcbd 554a 80be df08 60bd 5243 0e3e
000001f0: 2512 753d 455e 4c3d 264b 3a3e 0630 e1bd
00000200: 318c 8dbc aeeb e63d 5321 e43d 2f50 17be
00000210: 55f6 99be e61a 4abe a05a 03be 9cf8 cdbe
00000220: 3549 87bd 0cc1 28bd abda fabc ead6 67bc
00000230: bc69 90bd 6071 013e fef6 253d ed9f bb3d
00000240: 06c3 30be 0e5c 56bd d7e8 2dbc e703 cbbd
00000250: aa56 fdbd f87a abbd 5306 d1bd 2de1 cebd
00000260: 0031 3a3e b194 55bc 3adb ad3c 7c6d eebb
00000270: 9ff4 be3d 5b43 573d 907c 083e 6126 0cbe
00000280: 00cb a2be 7da9 b03d d9d3 d3bd e710 63be
00000290: 85e1 6c3c 77da 87bd 2bd8 8bbd 8ca7 0cbe
000002a0: 72e1 773d cff8 933d 5791 2bbe d124 d6bd
000002b0: ea76 d53d 903f 713d 26da 18be 568d 873d
000002c0: f350 093e 41c1 ffbd 91da 91bd b3c2 5dbe
000002d0: 9669 b1bc a84a 04be 01c7 473d c960 493c
000002e0: 1e4a 03be fbac 00be 2dfc 763d 52b5 c7bd
000002f0: bf9c fbbd 157a 6dbd 62cc 0d3e 8fb7 4a3d
00000300: ec4f b7bd d955 9cbd d826 15be d4c6 933a
00000310: 4840 9ebe d9de 363e 18cc c13c c0ea 85be
00000320: 554d a53c ad13 21be bfa7 47be 2791 de3d
00000330: 16be 3d3c beb8 e0bc 91f8 9dbe dfd1 e1bd
00000340: 5d9a 653c be10 82bd 0349 b13d aaf1 02be
00000350: 6d46 e53a 9d4d 37be 8e44 813d 5c95 a13d
00000360: d54a 11be f85f 2cbe 79da 2abe 9bcc a43d
00000370: 5101 65bd beb9 7c3c 46b1 003e e393 3bbe
00000380: 4ccc 72be f82e bdbc ae3d 1ebd 127a 02be
00000390: d4c5 65bc 18b2 043d 6dda 76bd 7169 94be
000003a0: 0e67 39be ed73 69bd 399e 27bd 4b65 aabd
000003b0: 0a89 85be 7fc8 30be 834c fabd 035c 51be
000003c0: dfc1 1dbe 752b c23c b9b1 a5bd 69b2 07be
000003d0: de75 8c3b 0b8c c03d fbfb 6c3d fea6 adbe
000003e0: 7975 3bbe 3120 be3d 0b28 fb3c 8d02 bbbe
000003f0: 2613 873d f7ec 0c3e 3d12 aa3d c0a9 55bd

sequential/conv2d/Conv2D f4 [32, 5, 5, 1]
-0.029196922 -0.1254673 -0.10313596 -0.035934534 0.029636482 -0.08286314 -0.07485022 -0.048800297
-0.020743651 -0.010855998 -0.0063123303 -0.0114542 -0.072088584 0.00091887364 -0.08765556 -0.11919394
0.014755301 0.026747517 0.015600207 -0.030155491 -0.107226446 0.020862391 -0.10199228 -0.027760154
0.047671057 -0.013789484 0.03823463 -0.0073231393 0.01197098 0.04837987 -0.08895339 -0.005543323
0.038772892 0.025411358 -0.06484664 -0.023075722 -0.055669237 -0.10184214 -0.08334711 -0.020053783
-0.08049975 -0.027401792 -0.07359936 0.019915508 0.040101517 -0.11251646 -0.0043094074 0.00906845
-0.018884242 -0.05585853 -0.07423188 -0.01903148 0.038261082 -0.027850198 0.0048765824 0.03603488
0.031065874 -0.11508956 -0.054142326 -0.004555078 0.030924825 -0.031245962 0.003277115 -0.08991225
0.018846663 0.016484365 0.026739622 -0.11304507 -0.090400465 0.037368137 -0.12028221 0.010480752
0.010482696 0.037782077 -0.029510375 0.0040882025 -0.06870989 0.04702087 -0.033853196 0.04292866
-0.07995108 0.0030328166 0.040014215 -0.074667886 -0.12639001 -0.04334437 -0.14908187 -0.079355635
-0.11159291 0.015051687 -0.12260641 -0.08856548 -0.034389157 -0.06218985 0.041741922 0.015621114
0.021953419 0.033976424 -0.0073391777 0.07581161 -0.0867208 -0.0019431153 0.03223624 -0.0071449187
0.026911104 0.020049607 -0.071508385 -0.07664924 -0.082359195 -0.008182533 -0.08302045 -0.021195464
-0.0383822 -0.02982727 -0.064768754 0.025774764 -0.039080095 -0.002749972 -0.079988405 0.0111615565
-0.0028415658 0.01771008 0.009248841 -0.08375482 0.0001317221 -0.008188641 -0.008530032 -0.028862555
-0.025770102 0.033701852 -0.0844046 -0.079775825 0.016466584 -0.06414639 -0.00842746 -0.042453934
0.010563137 -0.004841527 -0.12344957 0.047419034 0.07145112 0.06056034 0.0104070185 -0.13503246
0.032397572 0.042349704 -0.026454274 -0.0724823 -0.08825644 -0.16575657 -0.03523281 -0.06658227
-0.031130463 -0.06278451 -0.111721456 -0.090746894 -0.15830314 -0.09396403 -0.06420342 -0.10673997
0.031977374 0.055457316 0.002140831 -0.059335615 -0.022861559 0.045551963 0.10798447 0.095228374
0.06291372 -0.07986067 0.09280847 -0.03228593 0.019585608 -0.034130033 -0.021893738 -0.10025277
-0.11573252 -0.13476212 -0.08433367 -0.059776973 -0.02239479 -0.09567392 -0.09296654 -0.12679689
-0.025326964 0.005330939 -0.0845588 -0.16189413 -0.06618417 -0.076125935 0.05289566 -0.00051204895
-0.0025063786 -0.032548662 -0.079214126 -0.0076585207 0.025310889 0.09476133 0.10432276 -0.054864164
0.012911835 -0.039029136 0.034236 -0.09435184 -0.07429827 0.0059060846 -0.07429012 -0.10093954
0.0070508085 -0.034130123 0.038687922 -0.08899073 0.020022176 -0.014613823 0.005154106 -0.07701326
-0.10387714 -0.040678333 -0.07680557 -0.073557556 0.07320782 0.070036456 -0.047220256 -0.0303985
-0.09886031 -0.002846452 -0.13462806 -0.08977802 0.0039343247 -0.03552863 -0.04046749 -0.15468802
-0.18082467 -0.054687858 0.066521235 0.11791176 -0.05414624 -0.1986114 -0.09049513 -0.0021641164
0.13090463 0.09731131 -0.017516593 -0.04525059 0.10192184 -0.03198006 0.0020338916 -0.020574532
0.049417637 0.096060306 0.01136537 0.007743664 0.041390494 -0.034422446 -0.025957678 -0.03358538
00000000: 622e efbc 807a 00be f238 d3bd 1730 13bd
00000010: 35c8 f23c 26b4 a9bd 124b 99bd d2e2 47bd
00000020: 97ee a9bc 5bdd 31bc aad7 cebb 66aa 3bbc
00000030: 2ea3 93bd 91e0 703a c284 b3bd f41b f4bd
00000040: 38c0 713c 9c1d db3c 0398 7f3c a608 f7bc
00000050: 8a99 dbbd 9be7 aa3c 54e1 d0bd 4369 e3bc
00000060: ba42 433d 4aed 61bc ea9b 1c3d f2f6 efbb
00000070: ee21 443c f829 463d 322d b6bd c3a4 b5bb
00000080: 53d0 1e3d 7b2b d03c 51ce 84bd 4c09 bdbc
00000090: 6d05 64bd 9d92 d0bd e4b1 aabd d547 a4bc
000000a0: 0edd a4bd b979 e0bc 43bb 96bd d925 a33c
000000b0: 7d41 243d 086f e6bd ee35 8dbb d693 143c
000000c0: 20b3 9abc eacb 64bd e206 98bd e8e7 9bbc
000000d0: a7b7 1c3d 1926 e4bc bdcb 9f3b 4f99 133d
000000e0: dc7d fe3c 13b4 ebbd 58c4 5dbd c442 95bb
000000f0: 0f56 fd3c 88f7 ffbc dec4 563b ea23 b8bd
00000100: 5164 9a3c 380a 873c 0d0d db3c 2c84 e7bd
00000110: e123 b9bd 550f 193d 8556 f6bd 76b7 2b3c
00000120: 9dbf 2b3c 61c1 1a3d bebf f1bc 54f6 853b
00000130: c5b7 8cbd f598 403d a6a9 0abd f6d5 2f3d
00000140: 64bd a3bd 38c2 463b f2e5 233d 7aeb 98bd
00000150: 626c 01be de89 31bd eba8 18be 3585 a2bd
00000160: d38a e4bd 5a9b 763c 1219 fbbd d261 b5bd
00000170: a5db 0cbd c9ba 7ebd 94f9 2a3d b3ef 7f3c
00000180: a8d7 b33c dd2a 0b3d 7c7d f0bb 1e43 9b3d
00000190: ad9a b1bd 21b0 feba 260a 043d ec1f eabb
000001a0: ad74 dc3c 133f a43c fd72 92bd 47fa 9cbd
000001b0: f0ab a8bd 0810 06bc a006 aabd 1ca2 adbc
000001c0: a736 1dbd 5258 f4bc 7ba5 84bd 9925 d33c
000001d0: 7312 20bd e038 34bb f6d0 a3bd f6de 363c
000001e0: 9039 3abb bb14 913c 7388 173c a687 abbd
000001f0: e21e 0a39 a629 06bc 8cc1 0bbc 2a71 ecbc
00000200: d21b d3bc f40a 0a3d 52dc acbd 8261 a3bd
00000210: eee4 863c 2f5f 83bd 5413 0abc 2de4 2dbd
00000220: 0211 2d3c aca5 9ebb 21d3 fcbd 763a 423d
00000230: f754 923d 1e0e 783d 3382 2a3c f345 0abe
00000240: 51b3 043d e276 2d3d a2b6 d8bc 9a71 94bd
00000250: cbbf b4bd 17bc 29be 4750 10bd 495c 88bd
00000260: 5005 ffbc 2a95 80bd 38ce e4bd 82d9 b9bd
00000270: 381a 22be 3770 c0bd 157d 83bd 7c9a dabd
00000280: b5fa 023d 3627 633d 2f4d 0c3b e709 73bd
00000290: 2a48 bbbc b294 3a3d f626 dd3d 1807 c33d
000002a0: e9d8 803d fe8d a3bd 5e12 be3d 403e 04bd
000002b0: ff71 a03c efcb 0bbd 7f5a b3bc 5351 cdbd
000002c0: 2c05 edbd 15ff 09be 22b7 acbd b3d8 74bd
000002d0: 4775 b7bc b0f0 c3bd 3e65 bebd 0bd7 01be
000002e0: 7e7a cfbc 28af ae3b 2a2d adbd 93c7 25be
000002f0: 918b 87bd eae7 9bbd 1fa9 583d 063b 06ba
00000300: 0e42 24bb bf51 05bd 043b a2bd 54f4 fabb
00000310: c858 cf3c 3a12 c23d 2ca7 d53d 3fb9 60bd
00000320: 298c 533c 04dd 1fbd 0c3b 0c3d 8a3b c1bd
00000330: b129 98bd d487 c13b 6b25 98bd 64b9 cebd
00000340: 780a e73b 07cc 0bbd 3a77 1e3d c640 b6bd
00000350: 8c05 a43c d16e 6fbc c6e3 a83b 21b9 9dbd
00000360: 8abd d4bd 539e 26bd 3d4c 9dbd 58a5 96bd
00000370: fbed 953d 466f 8f3d 076a 41bd 4606 f9bc
00000380: 4677 cabd 8a8b 3abb f0db 09be 8add b7bd
00000390: 82eb 803b 7886 11bd 3dc1 25bd 8966 1ebe
000003a0: 1a2a 39be 6000 60bd 493c 883d b97b f13d
000003b0: 73c8 5dbd c960 4bbe 8355 b9bd d9d3 0dbb
000003c0: dd0b 063e 274b c73d f57e 8fbc af58 39bd
000003d0: 66bc d03d 86fd 02bd 0a4b 053b ec8b a8bc
000003e0: 266a 4a3d 44bb c43d d135 3a3c 90be fd3b
000003f0: 1489 293d 8dfe 0cbd 32a5 d4bc d390 09bd

sequential/conv2d_1/Conv2D f4 [32, 5, 5, 32]
-0.058571912 0.061716713 0.023484418 0.015065709 0.02689772 -0.08790653 0.042197708 0.1320432
0.0065804785 0.01822076 0.03918578 -0.04640109 0.0134572275 -0.00937379 -0.2156574 -0.025386352
0.03851071 0.026737403 0.01783015 0.002618373 0.09632908 -0.029258339 -0.013655047 -0.03087069
0.030088868 0.022623021 0.004546359 -0.061190538 -0.03589554 0.06260204 -0.067729875 -0.03750065
-0.01218484 -0.041005164 0.03080573 0.0043037175 -0.053770922 0.06548971 0.08601949 -0.043560077
-0.08426172 -0.08613431 0.070223115 -0.013686136 0.0039862073 -0.012433289 -0.158852 0.051512334
-0.13700679 0.0032197572 -0.037437063 0.06694818 -0.011192164 -0.07667083 -0.07081443 -0.049399838
-0.10678751 0.029772434 -0.0017529388 0.045142226 -0.081269436 -0.021252297 0.058959007 -0.017132286
-0.0668014 -0.026980586 -0.041936386 -0.074695565 -0.0238713 -0.009656198 0.06679414 0.008544093
-0.05132158 0.1351207 0.006909961 0.067864835 -0.054306522 -0.045179166 -0.09307586 0.05993411
0.073561236 -0.013831049 0.0057650185 0.11909999 0.039359365 -0.03410635 0.06375604 -0.0963303
-0.10718726 -0.03752318 0.031252135 -0.051490813 -0.016363256 -0.054790363 -0.028258454 0.032303162
-0.03250948 -0.05854546 -0.016738122 0.02623441 -0.0012474826 0.06534871 -0.009031883 0.0010093919
-0.003810593 0.097364865 -0.040261034 0.013907204 0.03650719 0.03208927 -0.106254734 0.015290927
0.051488705 -0.057177305 0.06314464 0.06260618 0.025137836 0.018413607 0.040520158 -0.06513712
-0.018659825 0.040431276 0.003700416 0.0132810585 0.034908134 -0.0037923756 -0.020830523 -0.052455615
0.034630448 0.003977979 0.027311945 -0.059169583 -0.01789829 0.0031919996 -0.14259051 0.01199323
0.057378754 -0.082384236 -0.09104197 -0.028752496 0.0096461335 0.046658553 -0.03083317 -0.04515301
0.09548965 0.057374496 -0.14209372 0.03916333 -0.122882165 -0.15225782 -0.15480717 -0.058982156
0.018971657 0.02311624 0.02002236 -0.05429872 0.013922571 0.036822714 -0.08873965 0.020907262
-0.056707278 0.038990505 -0.038952064 -0.03692435 0.050045382 -0.03685373 0.089706585 0.033697877
-0.09136007 -0.0458121 -0.036964737 0.012470118 -0.057559546 -0.08196254 -0.22384231 -0.014307928
-0.005043088 -0.05039935 0.047014497 -0.03878203 0.0788651 -0.020650338 0.014520455 -0.111869834
-0.011257776 0.07292034 -0.041440982 -0.0010827356 -0.03580788 -0.0686592 -0.013357762 0.010902165
0.03749518 0.052489117 0.045645148 -0.00052972225 -0.054194495 -0.07358472 0.10071757 0.0064674197
-0.0570755 -0.014923716 -0.011607299 0.053394273 -0.060236126 -0.04876641 -0.21608302 -0.025415357
0.03296254 0.034915987 0.03242291 0.02636762 0.0764105 0.008960835 -0.045764893 0.095848106
-0.034969475 0.030570282 0.0025457516 -0.059381545 0.019858642 -0.04939021 -0.053889472 -0.017602105
-0.041717026 -0.006395101 0.027388679 -0.03271545 0.02183544 0.06015866 0.12202593 0.053220697
-0.083975434 -0.019741002 -0.040903352 0.009432384 0.033951607 -0.06381376 -0.010647608 0.048983846
-0.027733345 -0.038072746 -0.0337376 -0.003665534 0.066380724 0.025499444 -0.04849414 0.029497944
-0.004752492 0.0003990253 0.036030933 -0.07381672 -0.018888153 -0.016178526 -0.116005085 0.051163517
00000000: 1ae9 6fbd aaca 7c3d 6562 c03c 2ad6 763c
00000010: 9b58 dc3c 5708 b4bd 81d7 2c3d 5536 073e
00000020: 0ea1 d73b b443 953c 4581 203d 120f 3ebd
00000030: b47b 5c3c 8694 19bc 4bd5 5cbe 0af7 cfbc
00000040: 68bd 1d3d 6608 db3c 8910 923c 0299 2b3b
00000050: 2e48 c53d 2faf efbc 6bb9 5fbc 87e4 fcbc
00000060: ee7c f63c ea53 b93c a0f9 943b eea2 7abd
00000070: 3407 13bd 8035 803d f6b5 8abd 489a 19bd
00000080: eca2 47bc 08f5 27bd 4c5c fc3c 3306 8d3b
00000090: e63e 5cbd 781f 863d fd2a b03d 0d6c 32bd
000000a0: 6991 acbd 2f67 b0bd 23d1 8f3d d13b 60bc
000000b0: bb9e 823b feb4 4bbc 19aa 22be 99fe 523d
000000c0: 824b 0cbe 9002 533b 9b57 19bd 211c 893d
000000d0: 575f 37bc 9905 9dbd 2807 91bd 7c57 4abd
000000e0: 69b3 dabd 52e5 f33c dec2 e5ba 0ee7 383d
000000f0: 9770 a6bd 4c19 aebc 007f 713d 0259 8cbc
00000100: 2ccf 88bd 6406 ddbc 7dc5 2bbd fdf9 98bd
00000110: bf8d c3bc 0835 1ebc 5ecb 883d 86fc 0b3c
00000120: 9436 52bd 155d 0a3e f46c e23b b8fc 8a3d
00000130: 8470 5ebd ca0d 39bd 8e9e bebd 787d 753d
00000140: 46a7 963d a09b 62bc 7be8 bc3b b2ea f33d
00000150: 4937 213d 1ab3 0bbd 8792 823d d248 c5bd
00000160: ff84 dbbd e8b1 19bd 3d02 003d 08e8 52bd
00000170: 3c0c 86bc dc6b 60bd 467e e7bc 5250 043d
00000180: a928 05bd 5dcd 6fbd 631e 89bc 8ce9 d63c
00000190: 9282 a3ba 8bd5 853d 77fa 13bc 924d 843a
000001a0: 24bb 79bb 3b67 c73d c1e8 24bd 0bdb 633c
000001b0: 9088 153d 0a70 033d 159c d9bd cc86 7a3c
000001c0: d2e5 523d c032 6abd fa51 813d ab37 803d
000001d0: dded cd3c 22d8 963c 77f8 253d 9c66 85bd
000001e0: 7ddc 98bc 449b 253d ae82 723b cc98 593c
000001f0: d5fb 0e3d 8189 78bb c6a4 aabc b3db 56bd
00000200: a8d8 0d3d b559 823b 4dbd df3c ce5b 72bd
00000210: 6f9f 92bc de30 513b 3f03 12be 417f 443c
00000220: fc05 6b3d 11b9 a8bd 3674 babd 5b8a ebbc
00000230: d10a 1e3c 0a1d 3f3d d895 fcbc 5df2 38bd
00000240: 1490 c33d 8501 6b3d 0481 11be ba69 203d
00000250: a5a9 fbbd 79e9 1bbe c585 1ebe 4697 71bd
00000260: 736a 9b3c 455e bd3c ef05 a43c 5668 5ebd
00000270: 7f1b 643c 6ad3 163d 22bd b5bd b545 ab3c
00000280: e445 68bd 82b4 1f3d 338c 1fbd fd3d 17bd
00000290: 63fc 4c3d f0f3 16bd 16b8 b73d c906 0a3d
000002a0: fd1a bbbd 78a5 3bbd 5668 17bd 774f 4c3c
000002b0: 8fc3 6bbd fadb a7bd eb36 65be cd6b 6abc
000002c0: 7d40 a5bb 8c6f 4ebd 4692 403d e8d9 1ebd
000002d0: 0784 a13d e62a a9bc 34e7 6d3c 031c e5bd
000002e0: 8972 38bc 4257 953d 05be 29bd 94ea 8dba
000002f0: 49ab 12bd 329d 8cbd 84da 5abc ff9e 323c
00000300: 8c94 193d d4fe 563d 68f6 3a3d 0fdd 0aba
00000310: 0cfb 5dbd 96b3 96bd 0345 ce3d a6ec d33b
00000320: 00c8 69bd 9a82 74bc 8a2c 3ebc f4b3 5a3d
00000330: 28ba 76bd 4abf 47bd de44 5dbe de33 d0bc
00000340: ba03 073d 1104 0f3d e3cd 043d e800 d83c
00000350: 1c7d 9c3d 77d0 123c f873 3bbd 034c c43d
00000360: 273c 0fbd 876e fa3c a0d6 263b 103a 73bd
00000370: 97ae a23c 644d 4abd 35bb 5cbd 4a32 90bc
00000380: 79df 2abd ff8d d1bb 395e e03c a300 06bd
00000390: 3de0 b23c ed68 763d bbe8 f93d f2fd 593d
000003a0: 50fb abbd e2b7 a1bc 468a 27bd 498a 1a3c
000003b0: d710 0b3d cab0 82bd 4e73 2ebc 49a3 483d
000003c0: 0a31 e3bc 2bf2 1bbd 7030 0abd 7539 70bb
000003d0: 9ef2 873d 36e4 d03c cba1 46bd aca5 f13c
000003e0: cbba 9bbb 4534 d139 2c95 133d 382d 97bd
000003f0: 54bb 9abc d488 84bc 1394 edbd d690 513d

sequential/conv2d_2/Conv2D f4 [64, 3, 3, 32]
0.08744401 0.029980944 -0.020712633 -0.065053806 -0.10186333 -0.07509847 0.007162269 0.04021063
0.18810338 -0.03635591 -0.06509362 0.1179034 -0.03996229 0.118770435 -0.19155402 -0.15230364
0.08526404 -0.015315473 0.14683047 -0.104172684 -0.13876793 0.026949387 0.066543445 -0.008080023
0.058340948 0.1210806 -0.19470753 -0.15624443 0.11448716 -0.19236684 -0.12974674 0.05168531
-0.017588161 0.048448667 -0.086376145 0.060941383 -0.06908702 -0.022634748 -0.0875314 0.0052653123
0.19904669 -0.018148035 -0.005226491 0.043662805 0.05645189 0.04937066 -0.08077463 -0.05470114
0.04754588 -0.11736624 -0.0039424743 -0.063942075 -0.09530444 0.014719621 0.02051241 0.061719
0.026421199 -0.085552216 -0.010261267 -0.042465333 -0.002509319 -0.23212954 0.038903225 -0.08981175
0.075874165 0.05452138 0.008947995 0.06478813 -0.042087086 0.05242898 -0.00559987 -0.16643602
0.09796376 0.06417906 0.03326612 0.095367655 -0.026962915 0.040832717 0.17805351 -0.030649558
-0.1274547 0.020462679 -0.021102047 0.015842948 -0.026224962 0.102389835 0.0377631 0.09803993
-0.032394864 -0.044855796 -0.0088840835 0.09339825 -0.07137745 0.0037801913 0.01766702 -0.07251316
-0.18537427 -0.07787495 0.049544312 -0.045210555 -0.053823218 -0.14328705 -0.052887544 0.04726415
0.059094705 -0.08164226 0.064857714 0.080702804 0.071419254 0.0761616 0.055235136 -0.078386255
-0.21515417 0.06771479 0.06543871 0.034633487 -0.004788696 -0.11294034 0.11344637 -0.0191779
0.055938154 0.031208966 -0.16604376 0.013237487 -0.033156898 -0.030857714 -0.046991166 0.052032936
-0.044602163 0.06591753 -0.05694732 -0.017707093 0.09625618 -0.056183916 -0.20558342 -0.027889537
0.06448705 0.017932026 0.08165675 -0.07375564 0.07014289 -0.07524862 0.0020522885 -0.13660964
-0.30726632 -0.09687608 -0.08014545 -0.03590456 -0.04687782 0.017985538 0.034282096 -0.045295585
0.06906846 -0.1395784 0.017461866 -0.078457914 -0.15191321 -0.071534395 -0.16167885 0.05327343
-0.12154375 -0.015940905 0.00571124 -0.0074404 0.084288605 -0.049347974 -0.18719316 0.060672008
0.12155173 -0.07830174 0.0046889284 -0.08635005 0.0052938475 -0.12906387 0.04919397 -0.04957399
-0.28554562 -0.0757519 -0.0813669 -0.02100347 -0.0871934 -0.029713243 -0.00031458132 -0.14998287
0.026753444 -0.34273997 0.048621766 -0.06138976 0.09291649 0.01006354 -0.012099423 -0.04640437
0.07005566 0.0657766 -0.039329413 0.035941284 0.08539658 -0.06766926 0.029172588 -0.07536573
-0.10110537 0.061905548 0.042136148 0.08414169 0.027858155 0.025517175 -0.0030769417 -0.12628223
-0.014461652 0.14618337 -0.07702901 -0.003125534 0.04760081 -0.024294445 0.06184996 -0.17057252
-0.027200751 -0.094269745 -0.21885127 0.032503888 -0.11358589 0.028660314 -0.027975414 0.008136582
-0.069951005 0.031823143 0.047392096 -0.079953596 0.110363975 0.025630748 -0.06719366 -0.16416673
-0.065091856 -0.024126781 -0.011710862 -0.015419016 0.06841683 -0.24721906 -0.11297119 -0.04627649
-0.014052397 0.037485633 -0.11288224 0.09368145 0.086963095 -0.10905789 -0.0066085183 -0.07424658
-0.18529436 -0.32146075 -0.073401526 -0.021158382 -0.04049803 -0.011639854 0.030279389 -0.054338083
00000000: d815 b33d 999a f53c 8aad a9bc ee3a 85bd
00000010: b99d d0bd 3acd 99bd 78b1 ea3b e7b3 243d
00000020: 2c9e 403e efe9 14bd ce4f 85bd 5677 f13d
00000030: 80af 23bd ea3d f33d bd26 44be 7cf5 1bbe
00000040: ea9e ae3d c0ed 7abc ba5a 163e 7d58 d5bd
00000050: 2e19 0ebe f6c4 dc3c ee47 883d 1362 04bc
00000060: ebf6 6e3d 1bf9 f73d 6961 47be 8afe 1fbe
00000070: 3f78 ea3d d0fb 44be 54dc 04be fab3 533d
00000080: 0c15 90bc 1c72 463d fae5 b0bd ac9d 793d
00000090: 7f7d 8dbd 826c b9bc aa43 b3bd a488 ac3b
000000a0: e5d2 4b3e 30ab 94bc fc42 abbb c5d7 323d
000000b0: 193a 673d e438 4a3d 2b6d a5bd 4d0e 60bd
000000c0: 78bf 423d b65d f0bd df2f 81bb 10f4 82bd
000000d0: f92e c3bd 912a 713c a409 a83c 10cd 7c3d
000000e0: 4571 d83c 0036 afbd e01e 28bc 21f0 2dbd
000000f0: 6373 24bb 5eb3 6dbe fd58 1f3d 39ef b7bd
00000100: ea63 9b3d d051 5f3d 9c9a 123c a4af 843d
00000110: 8263 2cbd c5bf 563d 1d7f b7bb 346e 2abe
00000120: 39a1 c83d 5070 833d 0e42 083d 1e50 c33d
00000130: 55e1 dcbc 3540 273d a953 363e c814 fbbc
00000140: 7c83 02be 59a1 a73c 33de acbc 12c9 813c
00000150: bbd5 d6bc c3b1 d13d 7bad 1a3d 29c9 c83d
00000160: 7ab0 04bd b6ba 37bd 8c8e 11bc 9547 bf3d
00000170: 572e 92bd 16bd 773b 6dba 903c c881 94bd
00000180: c1d2 3dbe e77c 9fbd faee 4a3d b42e 39bd
00000190: bc75 5cbd d7b9 12be 9ca0 58bd 0e98 413d
000001a0: 4a0d 723d 0f34 a7bd 1fd4 843d 8347 a53d
000001b0: 4244 923d 9dfa 9b3d 3d3e 623d f988 a0bd
000001c0: 6051 5cbe 0dae 8a3d bb04 863d d8db 0d3d
000001d0: 7eea 9cbb 444d e7bd 9256 e83d f91a 9dbc
000001e0: 681f 653d f2a9 ff3c 6007 2abe 0be2 583c
000001f0: 87cf 07bd 51c9 fcbc cf79 40bd 7d20 553d
00000200: c2b0 36bd c5ff 863d 9841 69bd 770e 91bc
00000210: f621 c53d 1b21 66bd 7684 52be 9978 e4bc
00000220: c911 843d 2fe6 923c a73b a73d 320d 97bd
00000230: 13a7 8f3d f31b 9abd b07f 063b 66e3 0bbe
00000240: 0352 9dbe f766 c6bd 4c23 a4bd a910 13bd
00000250: f502 40bd 6856 933c 626b 0c3d dd87 39bd
00000260: c473 8d3d a4ed 0ebe 300c 8f3c 8bae a0bd
00000270: 238f 1bbe a080 92bd 248f 25be 3d35 5a3d
00000280: eeeb f8bd 8096 82bc 5b25 bb3b 99ce f3bb
00000290: 819f ac3d 1a21 4abd 90af 3fbe 3683 783d
000002a0: 1df0 f83d aa5c a0bd 95a5 993b 4cd8 b0bd
000002b0: 0378 ad3b 5229 04be 9e7f 493d 190e 4bbd
000002c0: 0933 92be d023 9bbd b0a3 a6bd 780f acbc
000002d0: 7492 b2bd 3069 f3bc 64ee a4b9 1c95 19be
000002e0: 0a2a db3c 9d7b afbe 9e27 473d d473 7bbd
000002f0: 004b be3d 8ce1 243c a93c 46bc 8212 3ebd
00000300: 5879 8f3d e2b5 863d e117 21bd 2b37 133d
00000310: 67e4 ae3d 2e96 8abd 5afb ee3c 5959 9abd
00000320: 5510 cfbd ac90 7d3d f496 2c3d 7a52 ac3d
00000330: c936 e43c 6509 d13c 84a6 49bb 2150 01be
00000340: 91f0 6cbc 18b1 153e 63c1 9dbd c2d5 4cbb
00000350: 11f9 423d 2505 c7bc 6256 7d3d 90aa 2ebe
00000360: 1cd4 debc 7f10 c1bd 8c1a 60be cc22 053d
00000370: b89f e8bd 09c9 ea3c b22c e5bc 4c4f 053c
00000380: 7942 8fbd fc58 023d 371e 423d b6be a3bd
00000390: 8206 e23d 93f7 d13c d49c 89bd 531b 28be
000003a0: e14e 85bd 87a5 c5bc eade 3fbc 0aa0 7cbc
000003b0: 1f1e 8c3d fe26 7dbe 705d e7bd 6b8c 3dbd
000003c0: 063c 66bc 898a 193d ce2e e7bd 0fdc bf3d
000003d0: b519 b23d be59 dfbd 458c d8bb 970e 98bd
000003e0: cebd 3dbe 8196 a4be 8a53 96bd 5854 adbc
000003f0: 43e1 25bd 16b5 3ebc 7b0c f83c 9c91 5ebd

sequential/conv2d_3/Conv2D f4 [64, 3, 3, 64]
0.014006297 0.072534926 0.07574482 0.12134277 -0.06640709 -0.07940045 -0.0071612685 -0.13688007
0.00667558 -0.09449712 0.08404809 0.023971662 0.016731063 0.016067479 -0.024111537 0.17817424
0.19463357 -0.105747916 -0.012049791 0.02621028 -0.17226958 -0.073136374 0.018388418 -0.027501702
-0.048226528 -0.041330542 0.0055477424 0.06573717 0.0030592128 -0.049746405 0.09869322 0.03413044
-0.05368769 0.005577908 -0.06553678 0.07920554 0.023159986 -0.09766332 0.033995703 0.059522193
0.08611641 -0.051110208 -0.102290645 0.11633051 0.11261065 -0.13475943 -0.021677567 0.20518114
-0.0857443 0.03741536 0.008708106 0.03030873 -0.0053794663 -0.0127194645 -0.07489124 -0.123461366
0.14036249 -0.06679064 0.061551504 -0.02261156 -0.0658078 -0.093450695 0.099641606 -0.04556052
-0.04571551 -0.0005513306 -0.056604113 0.05566837 -0.011315701 -0.0961432 0.06336097 -0.13936113
0.031044394 -0.014522031 -0.030736934 -0.010582746 -0.055462535 -0.09972049 0.082028076 0.07129687
0.04718267 -0.13811846 -0.09819255 0.009727817 -0.14033432 -0.00019142817 0.00089345156 -0.019777415
-0.12586994 -0.059195444 -0.049065456 0.10373934 -0.027646067 0.1862378 0.078807026 0.04919052
-0.08246351 0.06119288 0.0057038427 0.12625818 -0.019575983 -0.115358725 0.052484658 -0.0128095
0.055470947 0.02249554 -0.17229469 0.068123534 -0.00019044624 -0.09549315 -0.102991365 0.037562575
-0.040497713 -0.06507881 -0.061936226 -0.045434512 -0.13708197 -0.088395715 -0.016560286 0.046986133
-0.056998692 -0.08303913 -0.101235546 -0.011287403 0.09225675 0.016674194 0.06404432 0.008296088
-0.05750491 -0.019118141 -0.042581778 0.10474065 0.015252468 -0.033813838 -0.054695446 -0.07197296
0.1539842 -0.019197462 -0.104660586 0.10580766 0.011659661 -0.0009963368 -0.08029997 0.07341254
0.047790825 -0.051003855 0.18680932 -0.06623714 -0.023635795 0.019999688 -0.064706296 -0.001953598
0.022782587 0.02258749 -0.014644431 -0.12211755 0.04744291 0.0020794543 0.15475248 -0.042361595
-0.11251915 0.013012097 0.019774318 0.058434535 0.03250398 -0.09320037 -0.08112946 0.017283581
0.019126903 0.054659028 -0.027232684 -0.010376983 -0.047253355 0.0301646 0.026515422 -0.03839148
-0.08089448 -0.0899863 -0.15110223 -0.16301234 0.0741326 -0.08880073 0.086165175 0.043881178
0.08502174 0.107466236 0.15474308 -0.054218404 0.0017977009 0.01053709 -0.11174952 0.047853842
-0.10860443 -0.22755362 -0.02726823 0.12658209 0.037869364 0.051743377 -0.074411385 -0.1426481
0.124670506 0.06926517 -0.190324 -0.15872301 -0.083133325 -0.051129654 0.049371555 -0.087490216
0.08907103 -0.024700703 -0.10511208 0.14232665 -0.060327377 -0.07064876 0.108962454 -0.040025022
0.11922809 -0.0532704 0.26318458 -0.28639945 0.030985434 -0.011275523 -0.10050162 0.05177889
-0.020880003 -0.05681197 -0.012837233 -0.1708256 -0.05170274 -0.07103329 0.074305475 0.11063083
-0.0077703055 0.0072493553 -0.020630479 -0.113369085 -0.17607324 0.031704497 0.05303931 -0.018414946
-0.13136591 -0.032213606 -0.010759089 -0.038579535 -0.08264816 0.008024129 -0.0444453 0.078762814
-0.07868256 -0.065571055 -0.030831499 -0.037208714 0.026900977 -0.14231263 -0.06272302 -0.15104154
00000000: ab7a 653c 318d 943d 1a20 9b3d 8f82 f83d
00000010: 7100 88bd b49c a2bd 13a9 eabb 4a2a 0cbe
00000020: d3be da3b b587 c1bd 6821 ac3d 3860 c43c
00000030: 950f 893c f29f 833c 8f85 c5bc 4f73 363e
00000040: 064e 473e 5d92 d8bd 7d6c 45bc f1b6 d63c
00000050: 7067 30be 86c8 95bd 4fa3 963c 404b e1bc
00000060: 2e89 45bd 374a 29bd d6c9 b53b 36a1 863d
00000070: 137d 483b e3c2 4bbd ac1f ca3d 5ccc 0b3d
00000080: a0e7 5bbd e2c6 b63b 2638 86bd 8436 a23d
00000090: 03ba bd3c b503 c8bd 143f 0b3d 8bcd 733d
000000a0: cd5d b03d f058 51bd c27d d1bd b13e ee3d
000000b0: 6aa0 e63d 60fe 09be 2795 b1bc 011b 523e
000000c0: b59a afbd d940 193d 72ac 0e3c 044a f83c
000000d0: 3c46 b0bb 4d65 50bc 9460 99bd 50d9 fcbd
000000e0: 2fbb 0f3e 88c9 88bd 6e1d 7c3d e13b b9bc
000000f0: 3dc6 86bd 1463 bfbd e610 cc3d ab9d 3abd
00000100: 3040 3bbd 2c87 10ba b7d9 67bd 8404 643d
00000110: 7d65 39bc bae6 c4bd 65c3 813d afb4 0ebe
00000120: d050 fe3c d0ed 6dbc 06cc fbbc 4163 2dbc
00000130: af2c 63bd 423a ccbd 56fe a73d 1804 923d
00000140: 9e42 413d ed6e 0dbe 2d19 c9bd 6c61 1f3c
00000150: cdb3 0fbe 1cba 48b9 8536 6a3a 3f04 a2bc
00000160: 0de4 00be ec76 72bd dcf8 48bd 4b75 d43d
00000170: 017a e2bc 1fb5 3e3e 9465 a13d 007c 493d
00000180: a1e2 a8bd 63a5 7a3d 4de7 ba3b d349 013e
00000190: d05d a0bc 3241 ecbd 27fa 563d f0de 51bc
000001a0: 8135 633d 9148 b83c 056e 30be 5a84 8b3d
000001b0: 86b2 47b9 ea91 c3bd 23ed d2bd 37db 193d
000001c0: eee0 25bd 0a48 85bd d7b0 7dbd 8a19 3abd
000001d0: 375f 0cbe d008 b5bd 70a9 87bc 8874 403d
000001e0: 7677 69bd 6b10 aabd 9554 cfbd cdee 38bc
000001f0: 1bf1 bc3d 5298 883c ab29 833d 51ec 073c
00000200: 458a 6bbd a69d 9cbc 3b6a 2ebd 4482 d63d
00000210: 7de5 793c 6180 0abd 5508 60bd 8f66 93bd
00000220: 09ae 1d3e ff43 9dbc 4a58 d6bd b0b1 d83d
00000230: 2a08 3f3c 8497 82ba 5074 a4bd 5059 963d
00000240: 50c0 433d 6be9 50bd f14a 3f3e 56a7 87bd
00000250: db9f c1bc 63d6 a33c bc84 84bd f007 00bb
00000260: 8ca2 ba3c 6609 b93c 32ef 6fbc c418 fabd
00000270: 7f53 423d 7447 083b 6f77 1e3e 5a83 2dbd
00000280: 7170 e6bd b130 553c c0fd a13c 0d59 6f3d
00000290: e522 053d d6df bebd 3427 a6bd 4c96 8d3c
000002a0: 06b0 9c3c 25e2 5f3d 1417 dfbc 3904 2abc
000002b0: bc8c 41bd c01b f73c df36 d93c 6240 1dbd
000002c0: 01ac a5bd bd4a b8bd 8bba 1abe b5ec 26be
000002d0: d5d2 973d 28dd b5bd 5e77 b03d c0bc 333d
000002e0: e11f ae3d 4217 dc3d f874 1e3e 1e14 5ebd
000002f0: d5a0 eb3a c2a3 2c3c efdc e4bd 6402 443d
00000300: 006c debd d103 69be a061 dfbc bc9e 013e
00000310: e81c 1b3d ddf0 533d ff64 98bd 5812 12be
00000320: 4053 ff3d e6da 8d3d 4be4 42be 4988 22be
00000330: ce41 aabd 546d 51bd d439 4a3d 122e b3bd
00000340: df6a b63d 2159 cabc 0145 d7bd 14be 113e
00000350: d719 77bd 4cb0 90bd b527 df3d 47f1 23bd
00000360: db2d f43d 1032 5abd 21c0 863e f3a2 92be
00000370: 2ad5 fd3c f9bc 38bc cbd3 cdbd 1a16 543d
00000380: 8a0c abbc abb3 68bd 4253 52bc e8ec 2ebe
00000390: 41c6 53bd e779 91bd 782d 983d 6b92 e23d
000003a0: 0c9e febb 008c ed3b 4001 a9bc 0d2e e8bd
000003b0: 8b4c 34be 93dc 013d bf3f 593d f1da 96bc
000003c0: c984 06be 6af2 03bd e446 30bc 9305 1ebd
000003d0: 7043 a9bd a377 033c 460c 36bd 664e a13d
000003e0: 5224 a1bd 1e4a 86bd 5792 fcbc 2a68 18bd
000003f0: 705f dc3c 67ba 11be ed74 80bd a2aa 1abe
